…
racy()]\n\nmodel_cnn.compile(optimizer=optimizer, loss=loss, metrics=['accuracy'])\n\n\n#Builing and Summury\nmodel_cnn.summary()","metadata":{"colab":{"base_uri":"https://localhost:8080/","height":1000},"id":"eEn1myKsfVLV","outputId":"5715c07f-3686-40b4-aa22-b2628500b0a0"},"outputs":[{"name":"stdout","output_type":"stream","text":["Model: \"sequential\"\n","_________________________________________________________________\n","Layer (type)                 Output Shape              Param #   \n","=================================================================\n","conv2d (Conv2D)              (None, 58, 58, 64)        640       \n","_________________________________________________________________\n","batch_normalization (BatchNo (None, 58, 58, 64)        256       \n","_________________________________________________________________\n","activation (Activation)      (None, 58, 58, 64)        0         \n","_________________________________________________________________\n","max_pooling2d (MaxPooling2D) (None, 29, 29, 64)        0         \n","_________________________________________________________________\n","conv2d_1 (Conv2D)            (None, 27, 27, 64)        36928     \n","_________________________________________________________________\n","batch_normalization_1 (Batch (None, 27, 27, 64)        256       \n","_________________________________________________________________\n","activation_1 (Activation)    (None, 27, 27, 64)        0         \n","_________________________________________________________________\n","max_pooling2d_1 (MaxPooling2 (None, 13, 13, 64)        0         \n","_________________________________________________________________\n","conv2d_2 (Conv2D)            (None, 11, 11, 64)        36928     \n","_________________________________________________________________\n","batch_normalization_2 (Batch (None, 11, 11, 64)        256       \n","_________________________________________________________________\n","activation_2 (Activation)    (None, 11, 11, 64)        0         \n","_________________________________________________________________\n","max_pooling2d_2 (MaxPooling2 (None, 5, 5, 64)          0         \n","_________________________________________________________________\n","conv2d_3 (Conv2D)            (None, 3, 3, 64)          36928     \n","_________________________________________________________________\n","batch_normalization_3 (Batch (None, 3, 3, 64)          256       \n","_________________________________________________________________\n","activation_3 (Activation)    (None, 3, 3, 64)          0         \n","_________________________________________________________________\n","max_pooling2d_3 (MaxPooling2 (None, 1, 1, 64)          0         \n","_________________________________________________________________\n","flatten (Flatten)            (None, 64)                0         \n","_________________________________________________________________\n","dense (Dense)                (None, 256)               16640     \n","_________________________________________________________________\n","dropout (Dropout)            (None, 256)               0         \n","_________________________________________________________________\n","dense_1 (Dense)              (None, 256)               65792     \n","_________________________________________________________________\n","dropout_1 (Dropout)          (None, 256)               0         \n","_________________________________________________________________\n","dense_2 (Dense)              (None, 256)               65792     \n","_________________________________________________________________\n","dropout_2 (Dropout)          (None, 256)               0         \n","_________________________________________________________________\n","dense_3 (Dense)              (None, 256)               65792     \n","_________________________________________________________________\n","dropout_3 (Dropout)          (None, 256)               0         \n","_________________________________________________________________\n","dense_4 (Dense)              (None, 256)               65792     \n","_________________________________________________________________\n","dropout_4 (Dropout)          (None, 256)               0         \n","_________________________________________________________________\n","dense_5 (Dense)              (None, 3)                 771       \n","=================================================================\n","Total params: 393,027\n","Trainable params: 392,515\n","Non-trainable params: 512\n","_________________________________________________________________\n"]}],"execution_count":35},{"cell_type":"code","source":"early_stopping = tf.keras.callbacks.EarlyStopping(monitor='val_loss', patience=50, restore_best_weights=True
…
